trained_models/best-model-epoch=41-val_acc=0.7087.ckpt (torch, 463669 bytes, 75 tensors)

enc1.conv.0.weight f4 [8, 3, 3, 3]
0	0xbdb9e44c	-0.09076747
1	0x3e1ffb51	0.15623213
2	0xbe03cd28	-0.1287123
3	0xbc79beda	-0.015243256
4	0xbe3a30fd	-0.1818275
5	0x3d5e97a0	0.05434382
6	0x3da1da3b	0.07902952
7	0xbe858308	-0.2607653
8	0x3e000f96	0.12505946
9	0x3dda3bca	0.10655935
10	0x3e7648b0	0.24051166
11	0x3d31f3ea	0.043445505
12	0x3e17c021	0.14819385
13	0xbc287618	-0.010282062
14	0x3e5a1063	0.21295314
15	0x3d05cb96	0.032664858
16	0xbe060df7	-0.13091265
17	0x3dfb3b24	0.122671396
18	0xbd75f074	-0.060043767
19	0x3cf2e48c	0.029649995
20	0xbdbd33fd	-0.092384316
21	0x3e22fae1	0.15916015
22	0xbe2fc653	-0.17165498
23	0xbd923d9e	-0.07140659
24	0xbd5dd65d	-0.05415951
25	0xbe2ea28d	-0.17054196
26	0x3d734520	0.059392095
27	0xbe601b00	-0.218853
28	0x3e24369b	0.16036455
29	0xbe43f341	-0.19135763
30	0x3e0dc76a	0.13845602
31	0x3d2fc79f	0.042914983
32	0xbd21239e	-0.039340608
33	0x3e0407b1	0.12893559
34	0x3d738b00	0.059458733
35	0x3e4ffc7f	0.20311163
36	0xbd3ad74a	-0.045615472
37	0xbde0e04e	-0.10980283
38	0xbc6ab81b	-0.014326121
39	0xbdbb7ceb	-0.091546856
40	0x3d7c2b2e	0.061564617
41	0x3e202433	0.15638809
42	0x3dbf1fa6	0.09332208
43	0xbdae75d0	-0.08518565
44	0x3dedeaa4	0.1161702
45	0xbc0199dc	-0.007910218
46	0x3d61d9ba	0.05513928
47	0xbe33dd35	-0.17564853
48	0xbe7178db	-0.23581259
49	0xbe0321b7	-0.1280583
50	0xbe4c8b7c	-0.19975084
51	0x3dea83a2	0.11450888
52	0x389c43bc	7.451276e-05
53	0x3cfd3c48	0.030912533
54	0x3d862bc7	0.065513186
55	0x3cdf273f	0.027240394
56	0x3e5bfc9a	0.21483079
57	0xbe0242f7	-0.12720858
58	0x3d3811ee	0.044938974
59	0xbd8ed9e7	-0.06975155
60	0x3d85b4f0	0.06528652
61	0xbd3049f4	-0.043039277
62	0x3dbfb0e0	0.09359908
63	0xbdbc4bb5	-0.091941275
64	0x3e13af61	0.1442237
65	0xbdb8c8a4	-0.09022644
66	0xbe2355bc	-0.15950674
67	0xbe02b903	-0.12765889
68	0x3e479afa	0.19492713
69	0x3c85f6dc	0.016353063
70	0x3e24ede3	0.16106372
71	0xbe28c795	-0.16482385
72	0xbe465790	-0.1936934
73	0xbe150381	-0.14552118
74	0xbdea5cf9	-0.114435144
75	0x3da2426c	0.07922825
76	0x3d99799e	0.074939
77	0x3e314b35	0.17313845
78	0xbdd82149	-0.10553224
79	0xbe08740c	-0.13325518
80	0x3dd21fd5	0.10259978
81	0xbd55ddce	-0.052213483
82	0x3e13165b	0.14363997
83	0xbd4c85ad	-0.04993217
84	0x3e100deb	0.1406781
85	0xbe0d9940	-0.13827991
86	0xbdc6c4e6	-0.09705524
87	0x3d95ddfb	0.0731773
88	0x3d0b7df0	0.03405565
89	0xbd2f462f	-0.04279154
90	0x3e1abc11	0.15110804
91	0x3e248a5f	0.1606841
92	0xbe1193fc	-0.14216608
93	0xbd884934	-0.066545874
94	0x3e3d9841	0.18515112
95	0xbd815533	-0.063150786
96	0xbd52ffd5	-0.05151351
97	0xbe492f9f	-0.19647072
98	0xbdcb4ffc	-0.09927365
99	0x3d69b931	0.057061378
100	0x3bc6f910	0.006072171
101	0xbe09b646	-0.13448438
102	0x3cde0819	0.02710347
103	0xbde03166	-0.10946922
104	0xbe15a6d0	-0.14614415
105	0xbdc1b1c8	-0.09457737
106	0xbe29ae06	-0.16570291
107	0xbdd50339	-0.10401005
108	0x3e4939a8	0.196509
109	0x3d251559	0.04030356
110	0x3d775892	0.0603872
111	0xbe3af04c	-0.18255728
112	0xbe0776ae	-0.13228866
113	0xbd8f0604	-0.06983569
114	0x3ce27657	0.02764432
115	0xbe376c53	-0.17912416
116	0xbdc022ce	-0.093816385
117	0xbdb3f2fb	-0.08786579
118	0x3ce336d7	0.02773611
119	0xbd45c581	-0.048284058
120	0xbab38c45	-0.001369842
121	0xbdfb75ef	-0.122783534
122	0xbdfc5546	-0.12320952
123	0xbdce19c3	-0.100635074
124	0xbd87e739	-0.06635899
125	0xbe1d217d	-0.15344806
126	0x3e463573	0.19356327
127	0xbb9106db	-0.004425866
128	0x3e4960c1	0.19665815
129	0x3db5b6a3	0.08872726
130	0xbe0a61ba	-0.13513842
131	0x3e251415	0.16120942
132	0xbca9b44f	-0.02071586
133	0xbd40156b	-0.046895426
134	0xbe096cbb	-0.13420384
135	0xbe2f621f	-0.17127274
136	0x3dd270cd	0.10275421
137	0x3c8427cb	0.016132256
138	0x3da027d7	0.07820099
139	0xbe13495a	-0.1438345
140	0x3e3d43f4	0.18482953
141	0xbe16cb4e	-0.14725992
142	0xbd23ab7b	-0.03995846
143	0x3d5d7d3b	0.054074507
144	0x3d993cda	0.0748231
145	0x3e3e3322	0.18574193
146	0x3e690dd1	0.22759177
147	0xbe5183b4	-0.20460397
148	0x3c9ca443	0.019121295
149	0xbd80230b	-0.06256684
150	0xbdb7d0ac	-0.08975348
151	0xbe57a36c	-0.21058434
152	0x3e12c0ce	0.14331362
153	0xbe115a63	-0.14194636
154	0x3de43ceb	0.11144432
155	0x3d8cb1f4	0.06869879
156	0x3d6e9c98	0.05825481
157	0xbde9fcfb	-0.11425205
158	0x3e2e34d4	0.1701234
159	0x3d1b84a5	0.037968297
160	0x3b978a2f	0.004624627
161	0xbe430599	-0.19045104
162	0x3d939e55	0.07207934
163	0xbd064c34	-0.032787517
164	0xbdb8190e	-0.08989154
165	0x3e20da6a	0.15708318
166	0x3d391ca6	0.045193337
167	0xbdd60ad2	-0.104512826
168	0xbdf348b5	-0.11879102
169	0xbc6617bd	-0.014043746
170	0x3dd4c9c6	0.10390048
171	0xbd815e11	-0.0631677
172	0xbdf29e53	-0.11846604
173	0xbd934401	-0.07190705
174	0xbe219ac0	-0.15781689
175	0x3d83fa75	0.06444255
176	0x3e133a27	0.14377652
177	0xbe5508d5	-0.2080415
178	0x3d081fb8	0.033233374
179	0x3db4c5ff	0.08826827
180	0x3dbc08dd	0.09181378
181	0xbbbf49d5	-0.005837659
182	0x3e29d4a0	0.16585016
183	0x3e216508	0.15761197
184	0x3e0dfc43	0.13865761
185	0x3d064f39	0.032790396
186	0xbba83a0a	-0.005133872
187	0x3da380e0	0.07983565
188	0x3cd99b18	0.026563212
189	0xbd533e52	-0.051573105
190	0x3e07d17c	0.13263506
191	0x3e39c076	0.18139824
192	0xbc5b6712	-0.013391273
193	0xbcfbe879	-0.0307505
194	0x3c7e68c5	0.015527909
195	0x3b260321	0.0025331455
196	0x3d894d60	0.06704211
197	0x3d8bf3df	0.06833624
198	0xbe43a21c	-0.19104809
199	0xbd9ba8d9	-0.076005645
200	0x3e2930d4	0.16522533
201	0x3d777538	0.060414523
202	0xbc0f3f3e	-0.008743105
203	0xbdefbc29	-0.117058106
204	0xbdef4a47	-0.11684089
205	0xbe2210a5	-0.15826662
206	0xbd772897	-0.060341444
207	0x3d1b77a4	0.037955895
208	0x3dc5a929	0.09651405
209	0x3d8ec270	0.0697068
210	0xbe4c4f5a	-0.19952145
211	0xbe10a484	-0.14125258
212	0xbd5cdc25	-0.053920884
213	0x3e24f4ee	0.16109058
214	0x3c111514	0.008855123
215	0xbd96cd6b	-0.07363399

enc1.conv.0.bias f4 [8]
0	0x3db02780	0.08601284
1	0xbd92f9d8	-0.0717656
2	0xbe217431	-0.1576698
3	0x3d6cf6fd	0.057852734
4	0xbdf47a2c	-0.11937365
5	0xbd0b50ab	-0.034012478
6	0xbe23495a	-0.1594595
7	0x3e0c3f70	0.13696074

enc1.conv.2.weight f4 [8, 8, 3, 3]
0	0x3dc8ffd3	0.098144196
1	0x3d510d2d	0.051037956
2	0xbd98a9bc	-0.07454249
3	0xbdfdde16	-0.12395875
4	0xbdbc0328	-0.091802895
5	0x3dd721f1	0.10504521
6	0x3d313122	0.043259747
7	0x3dda17e5	0.10649089
8	0x3d81b46f	0.06333243
9	0x3db6d3dc	0.08927128
10	0x3d4bef17	0.04978856
11	0xbd26c134	-0.040711597
12	0xbdd4f6a3	-0.10398605
13	0xbdf718cf	-0.12065279
14	0x3d841c65	0.06450728
15	0xbdf6b296	-0.12045781
16	0xbd5dc325	-0.054141182
17	0xbdbe9585	-0.09305862
18	0xbd53985c	-0.051658973
19	0xbdd50a65	-0.10402373
20	0xbe0095a3	-0.12557082
21	0x3d1fd7f0	0.039024293
22	0xbd9649d1	-0.07338298
23	0x3c399a1d	0.011328247
24	0xbdb7ea92	-0.089802876
25	0xbe1734a5	-0.14766176
26	0xbdabaa62	-0.08382107
27	0xbd6dd9db	-0.05806909
28	0xbcd9da31	-0.0265933
29	0xbdb15c9a	-0.086602405
30	0x3d8c001b	0.068359576
31	0xbd782f15	-0.060591776
32	0x3dcf7079	0.10128874
33	0x3d904556	0.07044475
34	0x3df833fd	0.12119291
35	0xbd454a6d	-0.04816668
36	0x3d95352f	0.072855346
37	0xbd7d0a53	-0.061777424
38	0x3d5e7637	0.054311957
39	0x3dc787fb	0.09742733
40	0xbc758904	-0.01498628
41	0x3d00ab43	0.031413328
42	0xbb970b83	-0.0046095266
43	0xbd6e0180	-0.0581069
44	0x3de8d6b7	0.113690786
45	0xbd94c5c2	-0.07264282
46	0x3dde57c6	0.10856585
47	0x3df7d933	0.12101974
48	0x3e4237da	0.18966618
49	0x3cb535eb	0.022120437
50	0xbd2c824f	-0.04211646
51	0x3e093460	0.13398886
52	0x3e2b54c6	0.16731557
53	0xbd59cecb	-0.05317573
54	0x3e06a9d7	0.13150726
55	0xbd8f6cfa	-0.070032075
56	0xbe5f154e	-0.21785471
57	0x3dbe55e9	0.0929373
58	0xbc9b8753	-0.018985426
59	0xbe0e54fe	-0.1389961
60	0xbdc489ef	-0.09596621
61	0x3dc44c81	0.095849045
62	0x3dc80c91	0.09768022
63	0xbc774365	-0.015091752
64	0xbc1a3e9a	-0.009414339
65	0xbd1b6820	-0.0379411
66	0xbddde0a5	-0.10833863
67	0xbddfa83a	-0.109207585
68	0x3d801946	0.062548205
69	0xbcf8c60c	-0.030367874
70	0xbd23726d	-0.039904047
71	0x3cabc2b2	0.020966861
72	0xbd143afa	-0.036189057
73	0xbccbcc64	-0.024877734
74	0x3c84656a	0.01616164
75	0xbc856c01	-0.016286852
76	0xbd12e476	-0.03586241
77	0xbd354dd9	-0.044263694
78	0xbda8cf9e	-0.08242725
79	0x3dd700f2	0.10498227
80	0xbcef881f	-0.029239712
81	0x3d82e8c8	0.06392056
82	0xbb569843	-0.0032744564
83	0x3d445d37	0.04794046
84	0x3e1795b5	0.14803202
85	0x3db7c476	0.08973019
86	0xbd811fcd	-0.06304894
87	0x3d912852	0.070877686
88	0x3e08a08d	0.13342495
89	0x3d4dd5dd	0.050252784
90	0x3e2b0788	0.16702092
91	0x3e4fc3b9	0.20289506
92	0x3d9be7d5	0.07612578
93	0x3df4dd8a	0.11956318
94	0x3c0ae33c	0.008477028
95	0x3d75c410	0.060001433
96	0x3e3f0d66	0.18657455
97	0x3e1bf286	0.15229234
98	0xba0533e0	-0.00050812773
99	0xbd956860	-0.072952986
100	0xbd5e610a	-0.054291762
101	0xbda76d2a	-0.08175118
102	0xbd963bd7	-0.07335632
103	0xbc031a39	-0.008001857
104	0x3de44971	0.1114682
105	0x3d2b1912	0.041771956
106	0xbd806a91	-0.06270326
107	0xbd6fc85b	-0.058540683
108	0x3dd6ec03	0.104942344
109	0xbd13ba65	-0.03606643
110	0x3d1185cc	0.03552799
111	0x3dd0d083	0.101960205
112	0xbc265452	-0.0101519395
113	0x3cf05e83	0.029341942
114	0x3d36f956	0.04467138
115	0x3ccc5e72	0.024947379
116	0xbbdfee26	-0.0068338094
117	0xbd0fa29f	-0.035067197
118	0xbc3ddcbe	-0.011588274
119	0x3bc3d42f	0.005976222
120	0x3e27f8b1	0.16403462
121	0xbbae2acd	-0.005315161
122	0xbc369990	-0.011145011
123	0x3dd45ba6	0.10369043
124	0x3dc187fd	0.09449766
125	0x3e150a28	0.14554656
126	0x3e01e4f8	0.12685001
127	0x3de09e74	0.109677225
128	0xbd802e12	-0.06258787
129	0x3d48cbaf	0.049022373
130	0x3dcfc897	0.10145681
131	0x3cdbbb23	0.026822632
132	0xbcc2888a	-0.023746748
133	0x3e182517	0.14857899
134	0xbc9884ff	-0.018618105
135	0xbcadaae3	-0.02119965
136	0xbd6c3c22	-0.057674535
137	0x3d5ecd6c	0.054395124
138	0x3db297f5	0.0872039
139	0x3d759d5c	0.059964523
140	0x3d8c9b93	0.06865611
141	0xbd2bf2a0	-0.041979432
142	0xbd896d49	-0.067102976
143	0x3d474b91	0.04865605
144	0x3e102f00	0.14080429
145	0x3dcc13e2	0.0996473
146	0xbdf8cccf	-0.12148439
147	0x3c1ad04f	0.009449079
148	0xbd98444e	-0.07434903
149	0xbd53b2f8	-0.05168435
150	0x3caa98cd	0.020824814
151	0x3d6f7741	0.05846334
152	0x3e1c8449	0.15284838
153	0xbe174c41	-0.14775182
154	0x3dca9f6a	0.09893687
155	0xbde363dc	-0.11103031
156	0x3d3e6d11	0.046490733
157	0x3db8ec07	0.09029394
158	0x3b344df0	0.0027512275
159	0x3dde3780	0.108504295
160	0xbe21651c	-0.15761226
161	0xbd7367e4	-0.05942525
162	0xbda2c521	-0.079477556
163	0xbe30b955	-0.17258199
164	0xbe2cada3	-0.16863112
165	0xbe44a5a9	-0.1920382
166	0xbca80834	-0.020511724
167	0xbd798ca5	-0.060925145
168	0xbdab0a33	-0.08351555
169	0xbe5ab9cc	-0.21359938
170	0xbe7aa049	-0.24475206
171	0x3c72af0e	0.014812244
172	0x3d1863de	0.037204616
173	0xbd8ae2c3	-0.067815326
174	0xbcaba2e7	-0.020951701
175	0x3db1d4b9	0.08683152
176	0x3be90fb6	0.0071124686
177	0x3cb55422	0.022134844
178	0xbc7d9e40	-0.015479624
179	0xbdceafcc	-0.10092124
180	0xbe054908	-0.1301614
181	0xbda7cfbd	-0.0819392
182	0xbdb0bbcf	-0.08629572
183	0x3d515e2d	0.051115204
184	0xbccd5d3e	-0.025068875
185	0xbd805c70	-0.06267631
186	0x3e122b89	0.1427442
187	0x3d98ba44	0.07457402
188	0x3dd6aacf	0.10481798
189	0x3e75360a	0.23946396
190	0x3e3f4ad6	0.18680891
191	0x3e451ae8	0.19248545
192	0x3e45d715	0.19320329
193	0x3e5e1e93	0.2169135
194	0x3e6d4df7	0.23174272
195	0x3e37ef36	0.17962345
196	0x3e48389e	0.19552848
197	0x3ec8a283	0.39186487
198	0x3daff314	0.08591285
199	0x3d303c01	0.043025974
200	0x3c92f0fd	0.017937178
201	0xbe045b2d	-0.12925406
202	0xbd65d859	-0.05611453
203	0x3d4a3ff8	0.04937741
204	0x3d821a89	0.063527174
205	0xbcbf0b52	-0.023320828
206	0xbd1ec262	-0.038759597
207	0x3d8542b3	0.065068625
208	0xbe07be84	-0.1325627
209	0x3d5afa89	0.053461585
210	0xbcd1a3ca	-0.025590796
211	0x3b801ab5	0.0039094337
212	0xbd24ed5b	-0.040265422
213	0x3d571c1b	0.052517038
214	0x3cca61ab	0.024704775
215	0x3e017d45	0.12645443
216	0xbcf435cf	-0.029810814
217	0x3da80b4c	0.0820528
218	0x3dd9081c	0.1059725
219	0xbda3db48	-0.08000809
220	0xbdef279a	-0.11677475
221	0x3da940af	0.082642905
222	0x3da5d19f	0.08096623
223	0xbe078a03	-0.13236241
224	0xbce90901	-0.028446676
225	0xbe2bb6a9	-0.16768898
226	0xbe0f172a	-0.1397368
227	0x3c394fd0	0.011310533
228	0x3d153e9a	0.036436655
229	0x3c80510d	0.015663648
230	0xbc90d140	-0.017677903
231	0x3e15226d	0.14563914
232	0x3d263de5	0.04058637
233	0xbd449820	-0.04799664
234	0xbc4486f9	-0.011995071
235	0x3cada82a	0.021198351
236	0x3d091c35	0.033474166
237	0xbdd277fb	-0.10276791
238	0x3cfc8e18	0.030829474
239	0xbd3e19ad	-0.046411205
240	0xbdb79a02	-0.089649215
241	0xbd89b90e	-0.067247495
242	0x3dfc9876	0.12333767
243	0x3dd64e46	0.10464148
244	0x3de5eb15	0.11226479
245	0x3d9a14aa	0.075234726
246	0x3dbb8bb0	0.09157503
247	0xbc72ba9d	-0.014815
248	0xbd871a77	-0.06596845
249	0x3d60fcbb	0.054928523
250	0xbd886bd4	-0.066611916
251	0xbdab83c2	-0.0837474
252	0xbc96df37	-0.018416984
253	0x3d563c15	0.052303392
254	0x3dbb6799	0.09150619
255	0xbcfc4d6f	-0.030798642

enc1.conv.2.bias f4 [8]
0	0xbde3f957	-0.11131542
1	0x3dc4080c	0.09571847
2	0xbcbc27b1	-0.022968145
3	0xbdc0d7f2	-0.09416188
4	0x3b4a81fb	0.0030900228
5	0x3da3d84e	0.08000241
6	0x3d9c08bd	0.07618854
7	0xbd7ef3f2	-0.062244363

enc2.conv.0.weight f4 [16, 8, 3, 3]
0	0x3c1fd8ac	0.009756248
1	0x3da49f60	0.08038211
2	0x3da04a6c	0.07826695
3	0x3d86d01f	0.06582665
4	0x3d927b71	0.07152451
5	0xbb3d18a7	-0.0028853805
6	0x3d916e6c	0.071011394
7	0x3dacc215	0.08435456
8	0xbcbd9d54	-0.023146309
9	0x3d14f535	0.03636666
10	0x3c418e73	0.011813748
11	0x3d741319	0.059588525
12	0xbdd7d239	-0.10538144
13	0xbdca8d75	-0.09890262
14	0xbd9e5829	-0.07731659
15	0xbd1ebe6d	-0.038755823
16	0x3cc61b08	0.024182811
17	0xbdeed071	-0.11660851
18	0x3dcfb23e	0.10141419
19	0x3ccc30ae	0.024925556
20	0x3e1c5868	0.152681
21	0x3cd39cb3	0.025831556
22	0xbd450f8d	-0.048110534
23	0x3c282bec	0.010264378
24	0xbd3f6605	-0.046728153
25	0x3de8d00c	0.11367807
26	0xbc0ec6b4	-0.008714367
27	0x3c6bb241	0.014385761
28	0x3d4d1d77	0.050076928
29	0xbcf42d4f	-0.029806761
30	0x3d982fd7	0.07431
31	0xbd8f7a82	-0.070057884
32	0xbd0b727e	-0.034044735
33	0xbda1cc5d	-0.07900307
34	0xbbded4ed	-0.006800285
35	0x3baeaa2a	0.0053303437
36	0x3d6d1648	0.057882577
37	0x3c9be809	0.019031541
38	0x3db27a70	0.08714759
39	0x3e11c36c	0.14234704
40	0x3da04296	0.078252
41	0xbc91ef5d	-0.017814333
42	0xbdb3ffed	-0.08789048
43	0x3d87f520	0.06638551
44	0xbd23c558	-0.039983124
45	0x3d9dd6a1	0.07706953
46	0x3dcc7d09	0.09984786
47	0x3d80d733	0.06291046
48	0x3e082b3c	0.13297743
49	0x3e105900	0.14096451
50	0x3d4a0348	0.049319535
51	0xbd8a8925	-0.067644395
52	0x3e03e24e	0.12879297
53	0xbd096c0a	-0.0335503
54	0xbcc1ae9b	-0.023642829
55	0x3e040181	0.12891199
56	0x3def04fc	0.116708726
57	0x3d9351f8	0.07193369
58	0x3d239d9e	0.039945237
59	0xbd95bf2e	-0.07311855
60	0x3c804a24	0.015660353
61	0x3e0fd594	0.14046317
62	0x3d5bad94	0.053632334
63	0x3d4cb754	0.049979523
64	0x3caa7c88	0.020811334
65	0x3cb5fb3c	0.022214524
66	0x3df52ef7	0.119718485
67	0x3d6f7bad	0.058467556
68	0x3e17d65e	0.14827868
69	0x3d388499	0.04504833
70	0x3df329ca	0.11873205
71	0x3de1faf4	0.11034194
72	0x3caa7bd8	0.020811006
73	0x3db78c23	0.08962276
74	0x3df182f6	0.11792557
75	0x3e11fb19	0.14255942
76	0x3e154d4a	0.14580265
77	0x3d5fd011	0.054641787
78	0xbca4c433	-0.020113086
79	0x3e017f2f	0.12646173
80	0x3e0384d5	0.1284364
81	0x3c18b646	0.009320801
82	0x3cc68cdc	0.024237089
83	0x3d4dc947	0.05024078
84	0x3df2cd6b	0.118555866
85	0x3d97b68d	0.07407866
86	0xbb366fc0	-0.0027837604
87	0xbc15d1bf	-0.009144246
88	0x3c8ddddd	0.017317707
89	0x3b87433c	0.004127888
90	0x3e4aac22	0.19792226
91	0x3e152b9f	0.14567421
92	0x3e254abb	0.16141789
93	0x3dbcc2e0	0.09216857
94	0x3dc7cbd7	0.09755676
95	0x3db2b111	0.08725179
96	0xbd050f02	-0.032485016
97	0x3d94bf1c	0.07263014
98	0x3cbe1c90	0.023206979
99	0x3d2b3d80	0.041806698
100	0x3ca6cfbf	0.020362733
101	0x3e45ad73	0.19304447
102	0x3e493980	0.19650841
103	0x3e28acb2	0.16472128
104	0x3e527641	0.20552923
105	0x3d716d11	0.058941904
106	0x3dbee198	0.09320372
107	0x3e0f0dfe	0.13970181
108	0xbd369145	-0.044572134
109	0xbd8d31d2	-0.06894268
110	0xbdb0dec3	-0.086362384
111	0x3d358268	0.04431382
112	0xbdc73ca6	-0.09728365
113	0x3d10f4ce	0.035389714
114	0x3e338a9f	0.17533349
115	0x3c73b8f6	0.014875641
116	0x3d1d25e2	0.038366206
117	0xbcb66dd3	-0.022269165
118	0xbe230946	-0.15921506
119	0xbdef0537	-0.116709165
120	0x3c5efca5	0.01361004
121	0xbe2b472d	-0.1672637
122	0xbe3f07c4	-0.18655306
123	0xbe0ebd8a	-0.13939491
124	0xbe0abab4	-0.13547784
125	0xbe13e027	-0.14440976
126	0xbe2315e2	-0.15926316
127	0xbd5e2d92	-0.054242678
128	0xbd89ecf1	-0.06734646
129	0xbe01dcdd	-0.12681909
130	0xbe3fb193	-0.18720083
131	0xbdfc55eb	-0.12321075
132	0xbde84eb7	-0.11343139
133	0xbddef64d	-0.10886822
134	0xbe2cce3f	-0.16875552
135	0x3e23b803	0.15988164
136	0x3d36a730	0.044593036
137	0x3dd256ac	0.102704376
138	0x3d6d7906	0.057976745
139	0x3e32b739	0.17452706
140	0x3ddf5134	0.1090416
141	0x3dde37b3	0.108504675
142	0x3e757117	0.23968922
143	0x3e832ada	0.2561863
144	0x3e2433e6	0.16035423
145	0xbcac25f1	-0.021014186
146	0x3c629f05	0.0138318585
147	0x3d99cfd9	0.07510347
148	0x3e62fabd	0.22165962
149	0x3e114c26	0.14189205
150	0x3d0c8f24	0.034316197
151	0x3e024dee	0.1272504
152	0x3d36c41c	0.04462062
153	0xbb57cbd9	-0.00329279
154	0xbc8ca384	-0.017167814
155	0x3dc79755	0.09745661
156	0x3d7c570f	0.061606463
157	0x3bc2bfc4	0.0059432704
158	0x3ce51750	0.027965218
159	0x3aa82f8f	0.0012831556
160	0x3da49b35	0.08037416
161	0x3d81ad3f	0.06331872
162	0x3d924bf5	0.07143394
163	0xbc8c7a9b	-0.017148307
164	0x3de93304	0.113866836
165	0x3cc0d620	0.023539603
166	0xbc3a0658	-0.0113540515
167	0x3dc7e989	0.0976134
168	0x3de81b81	0.11333371
169	0x3e08739a	0.13325348
170	0x3d5d47a3	0.054023396
171	0xbd9f471d	-0.07777236
172	0x3b52578e	0.0032095644
173	0x3c318be9	0.01083658
174	0xbe1c4d98	-0.15263975
175	0xbda087df	-0.07838415
176	0xbe397eb3	-0.18114738
177	0xbb906008	-0.004405979
178	0xbc54b4ed	-0.012982589
179	0xbdfa1a11	-0.12212003
180	0xbbc7b1d6	-0.0060941977
181	0x3d6d3e29	0.05792061
182	0xbb9046f3	-0.004402989
183	0xbd83e1c4	-0.06439546
184	0x3dfd2f59	0.123625465
185	0xbccfb77f	-0.025356052
186	0x3d15a851	0.036537472
187	0x3d818e88	0.06326014
188	0x3d4eb827	0.05046859
189	0xbe1c5607	-0.15267192
190	0x3c7a956e	0.015294416
191	0xbd995948	-0.07487732
192	0xbdd5b70b	-0.10435303
193	0xbc4f6d78	-0.012660377
194	0xbdb20cf9	-0.086938806
195	0xbdd572c3	-0.1042228
196	0xbda782e2	-0.08179261
197	0xbd8fce3d	-0.07021759
198	0xbceac042	-0.028656129
199	0xbc48f782	-0.012266042
200	0x3d610bd9	0.05494294
201	0xbd8132c1	-0.06308509
202	0xbd38756c	-0.045033857
203	0x3ce57ab1	0.028012605
204	0x3d88f079	0.066864915
205	0x3de00fa4	0.10940483
206	0xbd1c59dd	-0.038171638
207	0x3d5915c5	0.052999277
208	0x3dc40baa	0.09572537
209	0x3db78211	0.08960355
210	0xbdbbc191	-0.09167779
211	0xbc394162	-0.011307092
212	0xbd80198b	-0.06254872
213	0xbd93a28a	-0.07208736
214	0x3daccbf1	0.08437336
215	0x3bb52fbc	0.005529372
216	0x3e0401e7	0.1289135
217	0x3c7d133c	0.01544648
218	0x3de16901	0.11006356
219	0x3c5a8124	0.013336454
220	0x3e1667f9	0.146881
221	0x3d3f0fdc	0.046645984
222	0x3d737794	0.05944021
223	0xbb8191d0	-0.00395415
224	0x3dd46336	0.103704855
225	0x3e1a2f5c	0.15057129
226	0x3dbab5f1	0.09116734
227	0xbd0b2dc7	-0.033979204
228	0x3d2131c0	0.039354086
229	0x3cab95f6	0.02094553
230	0xbd8c8c43	-0.0686269
231	0x3e0576f8	0.13033664
232	0x3d13fc91	0.036129538
233	0x3d555697	0.05208453
234	0xbc975b46	-0.01847614
235	0xbcf1969b	-0.02949076
236	0x3d1ea444	0.038730875
237	0x3d965846	0.073410556
238	0x3d56a25e	0.05240094
239	0xbd13790a	-0.036004104
240	0x3e0fa542	0.14027885
241	0x3baf4e94	0.0053499434
242	0xbd5b9ad9	-0.05361447
243	0xbcc54c2c	-0.024084173
244	0x3e1660db	0.14685385
245	0x3cfd2399	0.030900763
246	0x3c6012a0	0.013676316
247	0xbc8cf06b	-0.017204484
248	0x3adbe57d	0.0016776767
249	0xbd8f0242	-0.069828525
250	0xbd7ded67	-0.061993983
251	0x3dd2467c	0.1026735
252	0x3dc3ee2c	0.09566912
253	0x3dde2e40	0.10848665
254	0xbdb1f775	-0.08689777
255	0x3d76aedd	0.060225356

enc2.conv.0.bias f4 [16]
0	0xbd402a49	-0.046915326
1	0xbd5df95c	-0.054192886
2	0xbd56c0da	-0.05243001
3	0xbdcca330	-0.09992063
4	0xbd607873	-0.05480237
5	0x3e066eed	0.13128252
6	0x3b4468e7	0.0029969753
7	0x3ccfd0a5	0.025368044
8	0x3dada7c7	0.084792666
9	0xbd0de727	-0.034644272
10	0xbd7f686b	-0.06235544
11	0xbdaedb0b	-0.08537873
12	0xbd70bb64	-0.05877246
13	0x3c8ebdeb	0.017424544
14	0xbde8c2d7	-0.11365288
15	0x3cefa297	0.029252334

enc2.conv.2.weight f4 [16, 16, 3, 3]
0	0x3d4b695c	0.049661025
1	0x3db5dc6c	0.08879933
2	0x3d3b0b13	0.045664858
3	0x3d101f71	0.035186235
4	0x3da381f1	0.07983769
5	0x3d80125e	0.06253503
6	0x3d49c9fe	0.0492649
7	0xba2dbcfc	-0.0006627587
8	0xbd20716c	-0.039170668
9	0xbe79400a	-0.24340835
10	0xbe7589e5	-0.23978384
11	0xbe5226d7	-0.20522629
12	0xbe62bcfa	-0.22142401
13	0xbe307c35	-0.17234881
14	0xbe040ba8	-0.12895072
15	0xbe579699	-0.21053542
16	0xbe7bc0c8	-0.24585259
17	0xbe3c62c8	-0.18397057
18	0xbe46586b	-0.19369666
19	0xbda0b779	-0.07847495
20	0xbe3a2160	-0.18176794
21	0xbdfe2c3e	-0.12410782
22	0xbdce1e1d	-0.100643374
23	0xbe0ab552	-0.1354573
24	0xbc49d05d	-0.012317744
25	0xbd6cc84b	-0.0578082
26	0xbcb29af0	-0.021802396
27	0xbd66c08c	-0.05633597
28	0xbbbc109b	-0.005739284
29	0x3caa2b30	0.020772547
30	0x3a14d5c0	0.0005677603
31	0xbcd7a84f	-0.026325373
32	0x3d1da7fb	0.038490277
33	0xbc19c6ed	-0.0093858065
34	0xbd05d030	-0.032669246
35	0xbd2393d8	-0.039935917
36	0x3cf7c738	0.030246362
37	0xbd064a89	-0.032785926
38	0x3df2a6fa	0.118482545
39	0x3c0a9c1d	0.008460072
40	0x3c6e93e2	0.014561625
41	0x3d7d9fd0	0.061919987
42	0x3d99c428	0.07508117
43	0x3d43162c	0.047628567
44	0x3df3c0bd	0.11901996
45	0xbd228a8a	-0.039682902
46	0x3d2a1eec	0.041533396
47	0x3c3e46d6	0.011613568
48	0xbd708fee	-0.058731012
49	0xbca31c5f	-0.01991099
50	0x3d09fa14	0.03368576
51	0x3ccd64d7	0.025072498
52	0x3d9784b1	0.07398356
53	0x3d8f6965	0.07002524
54	0xbcc88101	-0.024475576
55	0xbc154230	-0.009110019
56	0x3c0dbc55	0.008650859
57	0xbd0d31f9	-0.034471486
58	0x3c1e9764	0.009679649
59	0xbd196f91	-0.037459914
60	0x3d7a3c58	0.061092705
61	0x3dc5ec7a	0.09664245
62	0x3d2afee8	0.041747004
63	0x3c4de406	0.012566572
64	0x3c05877c	0.008149978
65	0x3d26bdff	0.04070854
66	0x3dccaf3d	0.099943615
67	0x3da1a18a	0.07892139
68	0x3dc60028	0.096679986
69	0x3e284624	0.16433007
70	0x3e0202c3	0.12696366
71	0x3de43ee2	0.111448064
72	0xbe7ff28f	-0.24994873
73	0xbe8a0f52	-0.26964813
74	0xbebc94db	-0.36832318
75	0xbe4d9724	-0.20077187
76	0xbe7ca9d1	-0.24674155
77	0xbe9e9c64	-0.30978692
78	0x3c2f6370	0.01070486
79	0xbd34ef23	-0.04417337
80	0xbe8a5a76	-0.2702214
81	0xbd5c3b49	-0.053767476
82	0x3ce0f2b6	0.027459484
83	0x3cd3bc2b	0.025846561
84	0x3d5b1d93	0.053495
85	0x3c35f680	0.011106133
86	0x3dd48977	0.10377782
87	0x3d1cb10d	0.038254786
88	0x3dcc66fa	0.09980579
89	0xbc5fbc92	-0.0136557985
90	0x3c0cb3a1	0.008587749
91	0xbc587363	-0.013211104
92	0xbd79f7d1	-0.06102735
93	0x3cb34cdc	0.021887235
94	0xbdce7f19	-0.10082836
95	0x3d61bed0	0.055113614
96	0xbc4af0f1	-0.0123865465
97	0xbc22518f	-0.00990714
98	0x3cc1f10b	0.023674509
99	0x3cdb5cdb	0.026777675
100	0x3d615184	0.05500938
101	0x3da22b16	0.07918374
102	0xbd328e98	-0.04359302
103	0x3d9d4b0f	0.07680332
104	0x3c8ea8f4	0.017414548
105	0x3c479ce5	0.012183403
106	0x3d48e4bd	0.049046267
107	0x3ddb8b38	0.10719913
108	0xbc214c52	-0.009844856
109	0xbcab449b	-0.020906737
110	0x3db87d15	0.090082325
111	0xbbb7875a	-0.005600852
112	0x3d7b00a8	0.061279923
113	0x3ce1b2c0	0.027551055
114	0x3d706acd	0.058695603
115	0x3dd07414	0.1017839
116	0x3a7f7a17	0.0009745671
117	0xbd472d70	-0.048627317
118	0x3d075125	0.03303637
119	0xbcc48927	-0.02399118
120	0xbd0ea12f	-0.034821685
121	0xbddb070a	-0.10694702
122	0x3d2ebc24	0.042659894
123	0xbc2fce22	-0.010730298
124	0xbc981079	-0.018562542
125	0xbd3d343b	-0.04619239
126	0x3d3a8154	0.045533493
127	0x3dd73d8c	0.10509786
128	0x3d842944	0.06453183
129	0x3e0a0605	0.13478859
130	0x3d6fbb0e	0.058528
131	0x3d65fd35	0.05614968
132	0x3de61030	0.11233556
133	0x3d803422	0.062599435
134	0x3d679d77	0.056546655
135	0xbde48178	-0.11157507
136	0xbd84e767	-0.06489449
137	0xbdea6b4a	-0.11446245
138	0xbd9322fe	-0.071844086
139	0xbd7ea74e	-0.062171273
140	0xbdcf08bb	-0.10109087
141	0xbdd53d96	-0.10412137
142	0xbdc0746b	-0.09397205
143	0xbdeaae24	-0.11458996
144	0x3d9cdf9e	0.07659839
145	0x3dac43ab	0.08411344
146	0x3d222d97	0.03959426
147	0x3b074e41	0.0020646008
148	0x3daaf04c	0.08346614
149	0xbd59f688	-0.053213626
150	0x3d8c250c	0.06843004
151	0x3d5c9fc2	0.053863294
152	0x3d872153	0.06598153
153	0x3c9f396c	0.01943656
154	0xbd6f88c8	-0.058480054
155	0x3d35847e	0.044315808
156	0xbc158651	-0.009126262
157	0x3d02c6c6	0.031927846
158	0x3d0e6fb3	0.034774493
159	0xbd33e5c9	-0.043920312
160	0x3cd599ca	0.026074309
161	0xbcdfd0c2	-0.027321223
162	0x3dd69657	0.10477894
163	0x3c1c604f	0.009544446
164	0x3ddd435e	0.10803865
165	0x3df6bc21	0.120476015
166	0x3e0ad40e	0.13557455
167	0x3e2556e4	0.16146427
168	0x3dc671d6	0.09689681
169	0x3d26dd74	0.040738538
170	0x3e27b054	0.16375858
171	0x3d2a498d	0.04157405
172	0x3d0c0b76	0.034190618
173	0xbd347a40	-0.0440619
174	0x3c9c8374	0.01910565
175	0xbb8e5572	-0.004343682
176	0x3df43a4d	0.119251825
177	0x3dc3dc8a	0.09563549
178	0x3dc84dad	0.097804405
179	0x3dc5f971	0.09666718
180	0xbd13d19d	-0.036088575
181	0xbc9ca71f	-0.019122658
182	0xbc50fcad	-0.012755555
183	0xbc8a3c85	-0.016874561
184	0x3da78e7a	0.08181472
185	0x3d4bacf2	0.04972548
186	0x3da928eb	0.082597576
187	0x3c6cc86c	0.014452081
188	0xbd4e04cb	-0.05029754
189	0xbcd13347	-0.025537146
190	0x3d6afd01	0.05737019
191	0x3d56092e	0.05225485
192	0x3ccb99e8	0.024853662
193	0xbcc64fb5	-0.02420793
194	0xbd98dfec	-0.07464585
195	0xbd37ebfb	-0.044902783
196	0x3d35394d	0.0442441
197	0xbcf5425f	-0.029938875
198	0x3c197e12	0.009368436
199	0xbbc7993d	-0.0060912655
200	0xbd743465	-0.05962028
201	0x3ca01f37	0.019546134
202	0xbd573a3a	-0.052545764
203	0xbcdfb2ee	-0.027307
204	0xbd806c74	-0.06270686
205	0xbdd9f676	-0.10642712
206	0xbc42f2f1	-0.011898742
207	0x3cfdb953	0.030972159
208	0xbd0c53dc	-0.034259662
209	0x3d7ddaa4	0.06197609
210	0xbd8868bc	-0.066606015
211	0xbd901dd7	-0.070369415
212	0xbd1a7edd	-0.037718643
213	0xbc9ff7cc	-0.019527338
214	0x3af68524	0.001880799
215	0xba5f04f9	-0.0008507516
216	0x3d496552	0.049168892
217	0xbd9fcedc	-0.07803127
218	0xbd3941b6	-0.045228682
219	0x3ceed8b0	0.029156059
220	0x3d25790a	0.040398635
221	0x3d37137a	0.04469631
222	0x3d7bf289	0.061510596
223	0xbcbde789	-0.023181694
224	0xbde541f6	-0.11194222
225	0xbbb1cb22	-0.0054258266
226	0xbccb3e43	-0.024809962
227	0x3d4b3b41	0.049617056
228	0x3c8883f4	0.016664483
229	0x3daf968c	0.085736364
230	0x3d5f4678	0.054510564
231	0x3a85ffbf	0.0010223313
232	0x3cb3981f	0.021923123
233	0x3d2e38ea	0.042534746
234	0x3d049903	0.032372486
235	0x3de199bd	0.110156514
236	0xbca4a25a	-0.020096947
237	0x3dac77d5	0.08421294
238	0xbc0726f1	-0.00824903
239	0xbcd4c72e	-0.025973883
240	0x3cf1cba8	0.029516056
241	0x3db34871	0.087540515
242	0x3dd9d173	0.106356524
243	0x3d826e33	0.06368675
244	0x3d19d3f8	0.037555665
245	0x3d3278df	0.043572303
246	0x3c5f713d	0.013637838
247	0x3d2a5412	0.041584082
248	0x3d3c6ce8	0.0460023
249	0x3df9a395	0.12189404
250	0x3dd44dc3	0.10366394
251	0xbbf3ddd9	-0.007442218
252	0x3cd09f61	0.025466623
253	0xbcd53047	-0.026023997
254	0x3c71d6ab	0.0147606535
255	0xbd24d154	-0.040238693

enc2.conv.2.bias f4 [16]
0	0xbd5f2050	-0.054474175
1	0xbd04ada1	-0.032392148
2	0x3da58d16	0.08083551
3	0xbcfc05b8	-0.030764446
4	0x3cd14f3c	0.025550477
5	0x3dc553e7	0.09635144
6	0x3ce06ade	0.027394708
7	0xbc15c09a	-0.009140158
8	0xbd5df906	-0.054192565
9	0x3d8fddee	0.070247516
10	0x3c24d5f1	0.010060773
11	0xbac79252	-0.0015226102
12	0x3d09033a	0.033450343
13	0xbd95d70b	-0.07316407
14	0xbc6ede65	-0.01457939
15	0x3cf8009b	0.030273726

enc3.conv.0.weight f4 [32, 16, 3, 3]
0	0xbd96e142	-0.07367183
1	0xbd28d708	-0.041220695
2	0x3d5bad0d	0.05363183
3	0x3babd42c	0.0052437987
4	0xba2f211a	-0.0006680653
5	0x3c128af6	0.008944264
6	0xbd17523b	-0.036943655
7	0x3d8b9025	0.06814603
8	0xbc3150ae	-0.010822458
9	0xbd333e16	-0.04376038
10	0x3cf1e596	0.02952842
11	0xbdb664f9	-0.08905978
12	0xbcda8fef	-0.026679961
13	0xbb8247a2	-0.0039758245
14	0xbd33de7e	-0.043913357
15	0x3cea5841	0.028606536
16	0xbdb65b6c	-0.08904156
17	0xbd442cf6	-0.04789444
18	0xbd11506e	-0.035477094
19	0x3da07b04	0.07835963
20	0x3d1ba267	0.037996676
21	0xbd8194be	-0.063271984
22	0x3d072ec4	0.033003584
23	0x3b4518ab	0.0030074518
24	0x3d9ae80b	0.0756379
25	0x3d43294f	0.047646817
26	0xbd2f74fd	-0.042836178
27	0x3d9e4419	0.07727832
28	0xbc634235	-0.013870765
29	0xbcafa36a	-0.021440227
30	0x3cec07a2	0.028812233
31	0x3dacfc76	0.084465906
32	0x3cbbd80c	0.022930168
33	0xbda4f5aa	-0.08054669
34	0xbcec80d8	-0.028870031
35	0x3d919399	0.0710823
36	0xbb0de7ca	-0.002165305
37	0xbc6140c9	-0.013748356
38	0xbd220736	-0.039557658
39	0xbca77a02	-0.02044392
40	0xbcab8834	-0.02093897
41	0x3d3743ed	0.044742513
42	0x3d6bd088	0.057571918
43	0x3dd2c5a5	0.10291604
44	0x3da03854	0.07823244
45	0x3cb21210	0.021737128
46	0x3d86cbd1	0.06581844
47	0x3d8dfa7e	0.06932543
48	0xbd57cb13	-0.0526839
49	0x3d7c9e80	0.061674595
50	0xbd14a2ab	-0.036287945
51	0x3da7eec7	0.0819984
52	0xbc936353	-0.017991697
53	0x3d16e3cc	0.036838338
54	0xbd8b9455	-0.068154015
55	0xbb7e7caf	-0.0038831641
56	0xbcb25354	-0.02176825
57	0x3d858b12	0.06520666
58	0x3e34f4c1	0.17671491
59	0x3e4c26ad	0.19936629
60	0x3dd40213	0.10351958
61	0x3dddcd93	0.10830226
62	0x3de1a193	0.11017146
63	0xbd015a1d	-0.03158008
64	0xbac27ec8	-0.0014838809
65	0x3c759137	0.014988235
66	0x3c0f9457	0.008763394
67	0xbc52c0a2	-0.01286331
68	0x3d770ddb	0.060315948
69	0x3c2256db	0.009908403
70	0xbd305e10	-0.043058455
71	0xbc911bf2	-0.01771352
72	0xbd8b528e	-0.068028554
73	0xbd428ca7	-0.047497418
74	0xbdcd4536	-0.100229666
75	0xbb571c00	-0.0032823086
76	0xbda74fd9	-0.081695266
77	0x3c2be16d	0.010490757
78	0x3d071538	0.03297922
79	0xbdafd99c	-0.085864276
80	0xbd971a01	-0.07378007
81	0xbd029d92	-0.031888552
82	0x3d7ad26c	0.06123583
83	0x3d7e7407	0.06212237
84	0xbc23750e	-0.0099766385
85	0x3db545ca	0.08851202
86	0x3da54ba0	0.08071065
87	0xbd2ad4fe	-0.04170703
88	0x3d0cfa92	0.03441865
89	0x3c3adfa7	0.011405862
90	0xbc062745	-0.0081880735
91	0x3d554963	0.05207194
92	0xbb7ea736	-0.003885699
93	0xbd53c652	-0.051702805
94	0x3d831385	0.064002074
95	0xbd92e5c2	-0.07172729
96	0xbcd64cc6	-0.026159655
97	0x3d0ab861	0.033867244
98	0x3d97eece	0.07418595
99	0x3dc3e06c	0.095642895
100	0xbb87f076	-0.004148538
101	0x3d336b96	0.043803774
102	0xbd750b92	-0.059825487
103	0xbb0f5c9b	-0.0021875266
104	0xbc341b98	-0.010992907
105	0x3d1274dc	0.035755977
106	0xbd2bb833	-0.041923713
107	0x3d0303c0	0.031986
108	0x3d4bb42b	0.04973237
109	0x3d989312	0.074499264
110	0x39da82e2	0.00041677715
111	0x3da3ab4f	0.07991659
112	0xbd93b04d	-0.07211361
113	0xbc496da6	-0.012294209
114	0x3d01f0d7	0.031723823
115	0x3cc405e8	0.023928598
116	0x3d38bc3a	0.04510138
117	0xbdb7b17b	-0.089693986
118	0x3c93b2c5	0.01802958
119	0xbde8dc9e	-0.113702044
120	0xbdb0f5a9	-0.08640606
121	0xbd0d29d3	-0.034463715
122	0xbde6eccd	-0.11275635
123	0xbdedb925	-0.11607579
124	0xbde24094	-0.110474735
125	0x3cd97de2	0.026549283
126	0x3cf0302f	0.02931985
127	0xbc80ad99	-0.015707778
128	0x3c05a7ac	0.008157652
129	0xbd7917d9	-0.06081376
130	0xbd895f4a	-0.06707628
131	0xbd3b9357	-0.04579481
132	0xbd8c522a	-0.06851609
133	0x3d898f45	0.067167796
134	0xbc85aa84	-0.01631666
135	0xbc835bdd	-0.016035015
136	0xbd88f99b	-0.066882335
137	0x3c8a96fb	0.016917696
138	0xbbc9d4a5	-0.0061593824
139	0xbd54dc6e	-0.05196803
140	0x3d65d9c7	0.05611589
141	0x3d961ccf	0.073297136
142	0xbd6c79ef	-0.057733472
143	0x3d3f299b	0.046670537
144	0xbd12c078	-0.035828084
145	0x3ce79663	0.028269952
146	0x3da16b6b	0.078818165
147	0xbd743d18	-0.059628576
148	0x3da8b313	0.08237281
149	0x3da7af31	0.08187712
150	0xbdc955bb	-0.09830805
151	0xbd28ae63	-0.041181933
152	0xbd58af12	-0.052901335
153	0xbd8849c0	-0.06654692
154	0xbddc7ab3	-0.107655905
155	0xbd7d5059	-0.061844204
156	0xbe249119	-0.16070975
157	0xbe0f86ba	-0.14016238
158	0xbd951d9a	-0.07281037
159	0xbcb213ed	-0.021738017
160	0xbb2bcf85	-0.002621622
161	0x3d926cd3	0.07149663
162	0xbd19b224	-0.037523404
163	0xbc741d65	-0.014899586
164	0xbce5f9f8	-0.028073296
165	0xbb24544c	-0.002507466
166	0xbd345174	-0.044022992
167	0x3c0e5c73	0.008689034
168	0xbd786993	-0.06064756
169	0x3ce39365	0.027780244
170	0x3d991652	0.074749604
171	0xbca3410e	-0.019928481
172	0x3da340d0	0.079713464
173	0xbc01ca14	-0.007921714
174	0xbd97fff6	-0.074218675
175	0xbd59a162	-0.053132422
176	0x3cd3d659	0.025859045
177	0xbdcb2e27	-0.09920912
178	0xbd54e70a	-0.05197815
179	0xbd455fc2	-0.048187025
180	0xbd5c942d	-0.05385225
181	0x3cb5fc40	0.022215009
182	0xbb2a8fe0	-0.0026025698
183	0xbde86282	-0.11346914
184	0x3d7968dd	0.06089102
185	0x3d7d7af9	0.061884854
186	0xbdab796e	-0.0837277
187	0x3c28a598	0.010293387
188	0x3d76ecbb	0.060284358
189	0xbdc68188	-0.09692675
190	0xbd803b6e	-0.06261335
191	0x3d51a84e	0.0511859
192	0xbd00e084	-0.031464115
193	0x3cf5d7b6	0.030010086
194	0xbd138905	-0.036019344
195	0xbc91c130	-0.017792314
196	0x3d662c33	0.056194495
197	0xbcb528dc	-0.02211421
198	0x3e66097d	0.22464557
199	0x3e61a249	0.22034563
200	0x3e6819bf	0.22666071
201	0x3e18f7a2	0.14938214
202	0x3da1957b	0.07889839
203	0x3deea483	0.11652472
204	0x3e095cbe	0.13414285
205	0x3df2771e	0.11839126
206	0x3dc0e472	0.094185725
207	0xbcdcdbf1	-0.026960345
208	0x3bf47b8f	0.0074610184
209	0x3d9ea7a9	0.077468224
210	0xbddf8715	-0.10914437
211	0x3d59225c	0.053011283
212	0x3d031af7	0.032008138
213	0xbd23a545	-0.039952535
214	0x3c654606	0.013993746
215	0x3dcacdf7	0.09902566
216	0xbda5bc02	-0.080925
217	0xbd829bc5	-0.06377367
218	0x3c6743b2	0.014115261
219	0xbddfaabd	-0.109212376
220	0xbd31c56a	-0.04340116
221	0x3e024a9f	0.12723778
222	0xbdc0fd03	-0.09423258
223	0xbd108f17	-0.03529271
224	0x3a02cc26	0.0004989527
225	0xbd0f5658	-0.034994453
226	0x3d5dbeab	0.054136913
227	0xbd89e775	-0.067336
228	0xbc62fff0	-0.013854966
229	0x3d95c78d	0.07313452
230	0xbd19afa8	-0.037521034
231	0x3c97fe37	0.018553836
232	0x3d8491d1	0.06473125
233	0x3d90b192	0.07065119
234	0xbcc80ede	-0.024421152
235	0x3dc7bf3a	0.097532704
236	0x3dd720df	0.105043165
237	0xbb7c6577	-0.0038512626
238	0x3d5f4d91	0.054517332
239	0xbcdb3e59	-0.026763128
240	0xbdd02ff7	-0.101653986
241	0x3d23430f	0.039858874
242	0x3d6b612c	0.057465717
243	0x3dacb2be	0.0843253
244	0x3d1dd042	0.03852869
245	0x3cbe6903	0.023243433
246	0x3d716fda	0.05894456
247	0x3d3fe9ed	0.04685395
248	0x3de463aa	0.11151822
249	0xbd32d94d	-0.043664265
250	0x3c676329	0.014122763
251	0x3d158940	0.036507845
252	0x3dc654dd	0.09684155
253	0x3c525ff6	0.012840262
254	0x3d59e9ac	0.053201362
255	0x3dbfeaab	0.09370931

enc3.conv.0.bias f4 [32]
0	0x3d9bb4e2	0.0760286
1	0xbce77bc6	-0.028257262
2	0x3d4fd11a	0.050736524
3	0xbcc07286	-0.023492109
4	0xbd73ef51	-0.0595544
5	0xbde79e4a	-0.11309488
6	0xbd8f8055	-0.07006899
7	0x3d9d5346	0.07681899
8	0x3d195ea0	0.037443757
9	0x3dbcbbbf	0.09215497
10	0xbd27d92f	-0.040978607
11	0x3d7be7f7	0.061500516
12	0xbd23cdef	-0.039991315
13	0x3d8ab6c7	0.06773143
14	0xbd07d2d9	-0.033160064
15	0xbd97ae0a	-0.07406242
16	0xbddd694b	-0.10811099
17	0xbbf00fcf	-0.0073261033
18	0xbd8c9ccb	-0.068658434
19	0xbdc50917	-0.096208744
20	0x3def62d7	0.11688774
21	0x3df09030	0.117462516
22	0x3db5f00a	0.088836744
23	0x3d8e3a14	0.06944671
24	0xbc105ec1	-0.008811654
25	0x3cbdfcc8	0.023191825
26	0xbd98ca1e	-0.07460426
27	0x3d8d0403	0.06885531
28	0x3cffb031	0.031211944
29	0x3d9df937	0.077135496
30	0xbdf94948	-0.121721804
31	0xbd5de7ca	-0.05417613

enc3.conv.2.weight f4 [32, 32, 3, 3]
0	0xbcc677ac	-0.024226986
1	0xbcebebbe	-0.028798934
2	0xbc1d2602	-0.009591581
3	0x3d010524	0.031499043
4	0x3d613e9c	0.05499135
5	0x3d573e6b	0.05254976
6	0xbb490eaa	-0.0030678906
7	0x3d3dccbf	0.04633784
8	0x3db478ea	0.08812125
9	0x3c86ba24	0.01644618
10	0xba07d368	-0.00051813433
11	0xbccb7cff	-0.024839876
12	0x3d6e077a	0.0581126
13	0x3c2d6f97	0.010585687
14	0xbc5f2a8e	-0.013620986
15	0x3d591f55	0.053008396
16	0x3d09ce2a	0.03364388
17	0x3b874864	0.0041285027
18	0xbd17efaf	-0.037093814
19	0x3cdce694	0.026965417
20	0x3af889aa	0.0018961926
21	0x3c57e618	0.013177417
22	0x3b021125	0.0019846645
23	0x3d8ea9a7	0.06965952
24	0x3d611790	0.05495411
25	0x3d8c7b16	0.06859414
26	0x3d320cab	0.043469112
27	0x3cd2e75d	0.025745088
28	0x3d87d492	0.066323414
29	0x3c112e01	0.008861066
30	0x3d38edfc	0.045148835
31	0x3d0c60f9	0.034272168
32	0xbd37c3ea	-0.044864573
33	0x3d55bbf1	0.052181188
34	0x3bb3e0ef	0.0054894607
35	0xbcddda1e	-0.027081545
36	0x3d423c93	0.04742105
37	0xbc43d452	-0.011952477
38	0x3d97e571	0.07416809
39	0xbd676557	-0.05649313
40	0x3b244731	0.0025066847
41	0xbcce2741	-0.025165202
42	0xbbebd42a	-0.007196923
43	0xbb58b85f	-0.0033068878
44	0x3d3a604b	0.04550199
45	0x3c11e0be	0.00890368
46	0xbd286fb6	-0.04112216
47	0xbc68e353	-0.014214355
48	0x3d0290c8	0.031876355
49	0xbd6734f7	-0.056446996
50	0xbd7b40f8	-0.061341256
51	0xbd029cc4	-0.031887785
52	0xbd666ea5	-0.056257863
53	0xbd267bf8	-0.04064557
54	0x3d5ded0b	0.05418114
55	0x3d1fbf36	0.039000712
56	0xbd34c932	-0.044137187
57	0xbcf56cc4	-0.02995909
58	0x3d66b22c	0.05632226
59	0x3a57efd4	0.00082373363
60	0xbd16de8f	-0.036833342
61	0x3bc0ae8c	0.0058801826
62	0xbc994857	-0.018711252
63	0x3d2844ac	0.041081116
64	0x3caa25f8	0.020770058
65	0x3d5bfae3	0.05370606
66	0x3d5e5ee8	0.05428973
67	0x3d2741af	0.040834125
68	0x3d21c3d4	0.039493397
69	0x3bb9c794	0.0056695435
70	0xbd103994	-0.03521116
71	0x3c77fa5b	0.015135373
72	0xbcdc675e	-0.026904758
73	0xbcfb448a	-0.03067233
74	0xbd1092a8	-0.035296112
75	0x3b6cffeb	0.0036163281
76	0xbcda79bc	-0.026669376
77	0x3cdf7b8a	0.027280588
78	0x3d2bf3b5	0.041980464
79	0x3d4e3ef7	0.050353017
80	0xbd28215c	-0.04104744
81	0x3d6b2836	0.057411395
82	0x3cdf2f54	0.027244247
83	0x3d7a659c	0.06113206
84	0x3d1f4f78	0.038894147
85	0x3cb8d651	0.022563132
86	0x3b844810	0.004036911
87	0x3d7ab2f4	0.06120582
88	0xbcce5f49	-0.02519192
89	0x3d7f1e2e	0.06228464
90	0x3d3a68c2	0.04551006
91	0x3b644985	0.003483386
92	0xbd1cc348	-0.038272172
93	0xbd6f6391	-0.058444563
94	0xbc60e15a	-0.013725603
95	0x3d09be9f	0.033629056
96	0xbcb310aa	-0.021858532
97	0xbd1e8d7e	-0.038709156
98	0xbd7100f9	-0.05883882
99	0x3c7c0b29	0.01538352
100	0x3d355812	0.044273444
101	0x3cfed260	0.031106174
102	0x3cb0ab52	0.021566067
103	0xbcee022d	-0.029053772
104	0x3d45e3d3	0.048312973
105	0x3cab55c6	0.020914923
106	0xbd2f876e	-0.042853765
107	0x3d9207d9	0.07130403
108	0x3d3c3eb2	0.04595823
109	0x3c0e18f7	0.008672944
110	0xbb8452f4	-0.004038209
111	0x3d7bbe49	0.061460767
112	0x3d883db8	0.06652397
113	0x3c8579c7	0.01629342
114	0x3d757a6a	0.059931196
115	0x3ceb1cf2	0.028700326
116	0x3cf4f730	0.029903024
117	0xba185e7a	-0.0005812418
118	0x3b82e0eb	0.0039940975
119	0x3d6823a7	0.056674626
120	0xbcb3714b	-0.021904608
121	0xbd0598ca	-0.032616414
122	0x3d6edf67	0.05831852
123	0xbc0e67dd	-0.008691755
124	0x3d576d4b	0.052594464
125	0x3c5473c8	0.0129670575
126	0xbe32821c	-0.17432445
127	0xbdb4a2df	-0.08820128
128	0xbd52cc3a	-0.051464297
129	0xbdd8303c	-0.10556075
130	0xbde09f6a	-0.10967906
131	0xbcff233b	-0.031144729
132	0xbe368cf5	-0.17827208
133	0xbdb27e11	-0.087154515
134	0xbda8f9fa	-0.08250804
135	0xbcfcef22	-0.030875746
136	0x3bb64850	0.0055628195
137	0x3d17929d	0.037005056
138	0x3d234d29	0.039868508
139	0xbc850722	-0.016238753
140	0xbc623ce6	-0.013808465
141	0xbd86ea48	-0.06587654
142	0x3d222055	0.039581615
143	0x3c32ceb9	0.010913544
144	0x3b5505e4	0.0032504732
145	0xbd89b3b9	-0.067237325
146	0x3c81d3be	0.015848037
147	0xbd2f9135	-0.04286309
148	0xbbc2f20b	-0.005949264
149	0x3c4a6a7b	0.0123544885
150	0xbcb4eebe	-0.022086497
151	0xbd40e1b6	-0.047090255
152	0x3c71f230	0.014767215
153	0x3d36a508	0.04459098
154	0x3b3fc75f	0.0029263122
155	0xbd5533fa	-0.05205152
156	0xbd66e250	-0.056368172
157	0xbd8cf437	-0.06882518
158	0xbd522ec4	-0.05131413
159	0xbe25b7d5	-0.16183408
160	0xbd985a2f	-0.07439076
161	0xbdd1d706	-0.102460906
162	0xbd757f93	-0.059936117
163	0xbcfb13b4	-0.030649044
164	0x3c80a065	0.015701482
165	0xbde759f6	-0.112964556
166	0x3ca8a601	0.02058697
167	0x3dd619b2	0.1045412
168	0xbc9f727f	-0.019463776
169	0x3db8827e	0.090092644
170	0x3d7218b7	0.0591056
171	0x3c3015c2	0.010747375
172	0x3c90b710	0.017665416
173	0x3d0e3274	0.034716085
174	0x3ca5b752	0.020229015
175	0x3d3a670b	0.045508426
176	0x3d1d3ce3	0.038388144
177	0x3cf9e123	0.030502861
178	0xbb20208b	-0.002443346
179	0x3ccf19e8	0.025280908
180	0xbcce254e	-0.025164273
181	0x3b98f299	0.004667592
182	0x3c29fe9d	0.010375646
183	0xbcc09958	-0.02351062
184	0x3b9ea31a	0.0048412206
185	0xbd3bb1da	-0.04582391
186	0xbd52657c	-0.051366314
187	0xbc8b2f75	-0.016990403
188	0x3c052842	0.008127274
189	0x3d3b2489	0.04568914
190	0xbd08f544	-0.03343703
191	0x3cea7bad	0.028623426
192	0x3d2015dd	0.03908335
193	0xbc8b9200	-0.017037392
194	0x3d000c7e	0.031261913
195	0xbc57fa43	-0.013182226
196	0x3c953480	0.01821351
197	0xbbe00522	-0.0068365494
198	0x3bb0b881	0.0053930883
199	0xbb05c5b5	-0.0020412032
200	0x3d98325e	0.07431482
201	0x3d1e45fd	0.038640965
202	0xbd0803e5	-0.03320684
203	0x3d0a4101	0.0337534
204	0x3d77d083	0.060501587
205	0x3b2d47a8	0.0026440416
206	0xbb95ed4b	-0.0045754067
207	0x3c80425f	0.015656648
208	0xbcd3c65e	-0.025851425
209	0x3bb78085	0.0056000375
210	0x3d17f4d1	0.03709871
211	0xbc7530d7	-0.014965258
212	0xbccb37b4	-0.024806835
213	0xbb7e665d	-0.0038818337
214	0xbc490f66	-0.012271738
215	0x3d103f46	0.035216592
216	0x3cfcc7be	0.030856963
217	0x3d363235	0.044481475
218	0x3d2c0c85	0.042004127
219	0x3ca2fe22	0.01989657
220	0xbd19a758	-0.037513107
221	0xbd37cd5e	-0.044873588
222	0xbd85e23d	-0.06537292
223	0xbb31932f	-0.0027095785
224	0xbd535d54	-0.051602677
225	0x3d190a62	0.037363417
226	0xbcfba47a	-0.030718077
227	0x3d73d766	0.05953159
228	0xbd2bab81	-0.041911606
229	0x3d1d2978	0.038369626
230	0xbd1906ba	-0.03735993
231	0x3d713c42	0.058895357
232	0xbcb6574a	-0.02225842
233	0xbce920d9	-0.028458046
234	0x3d2afe93	0.041746687
235	0x3d9d5d96	0.07683866
236	0x3cb4c615	0.02206711
237	0x3ceba8a9	0.028766947
238	0x3d8bedb8	0.06832451
239	0xbd11b167	-0.035569575
240	0x3caba7c6	0.020954024
241	0x3ca215e7	0.019785834
242	0xbd04b074	-0.03239484
243	0x3d6bf081	0.05760241
244	0x3d97558e	0.07389365
245	0x3d8b0795	0.067885555
246	0xbc8c03fb	-0.017091742
247	0x3d9b5b37	0.07585757
248	0x3d98a820	0.07453942
249	0x3d44883d	0.04798149
250	0x3c84ef1c	0.016227297
251	0x3d917b23	0.071035646
252	0xbc846c18	-0.016164824
253	0xbc6a1caf	-0.014289065
254	0x3d68ce06	0.056837104
255	0x3d824998	0.06361693

enc3.conv.2.bias f4 [32]
0	0x3c594f2c	0.013263505
1	0x3cc40c1c	0.023931555
2	0x3ded9829	0.11601288
3	0x3da009f9	0.07814402
4	0xbda195d0	-0.078899026
5	0x3d32b5b3	0.043630313
6	0x3cf905df	0.030398307
7	0x3da3a2f9	0.07990069
8	0xbc9ca810	-0.019123107
9	0xbcec98eb	-0.02888151
10	0x3d3a480f	0.045478877
11	0xbbeccce1	-0.007226572
12	0x3b292a93	0.002581273
13	0x3d8adb7c	0.067801446
14	0xbbc2cf21	-0.005945102
15	0x3d29e766	0.041480444
16	0xbd55ee7f	-0.0522294
17	0xbdaeb021	-0.08529688
18	0x3d2fc7a6	0.04291501
19	0x3d2f4d5d	0.04279839
20	0x3d93a773	0.07209673
21	0x3cbda12c	0.023148142
22	0x3cb92a2b	0.022603115
23	0x3b745607	0.0037282722
24	0x3d3311c1	0.043718103
25	0x3d99e177	0.07513707
26	0x3dd32075	0.10308925
27	0x3d90d0fd	0.07071111
28	0xbda7f348	-0.08200699
29	0xbd3feb44	-0.046855226
30	0x3db80ad8	0.08986443
31	0x3da869d3	0.08223309

qc.weights f4 [1, 4]
0	0x3b7c89fe	0.0038534398
1	0x3a517a8e	0.00079909794
2	0x3c720029	0.014770546
3	0x3befd7ee	0.007319442

fc_latent.weight f4 [4, 512]
0	0xbd18220f	-0.037141856
1	0xbb619c92	-0.0034425599
2	0x3cbcd64e	0.023051407
3	0xbd285ac0	-0.04110217
4	0x3ce672a8	0.028130844
5	0x3b011a42	0.0019699489
6	0x3bad42ff	0.0052875276
7	0x3ce02d8c	0.027365468
8	0x3cb70c44	0.022344716
9	0xbb24480f	-0.0025067364
10	0xbd2c38fb	-0.04204653
11	0x3d1c8fbb	0.03822301
12	0xbc6a6ca9	-0.014308133
13	0xbcc9195f	-0.02454823
14	0x3c722afd	0.014780757
15	0x3cf354bd	0.029703492
16	0x3bce35cf	0.0062930356
17	0xbcce012f	-0.025147049
18	0xbd2464c9	-0.04013518
19	0x3c9d9cb5	0.019239763
20	0x3c7d7588	0.015469916
21	0x3cd73209	0.026268976
22	0x3d345e73	0.044035386
23	0xbcc53619	-0.024073647
24	0x3c60e9d9	0.013727629
25	0x3d33942a	0.043842472
26	0xbab4d976	-0.0013797719
27	0xbc866b84	-0.01640869
28	0xbd0d4f13	-0.03449924
29	0x3a39a177	0.000708125
30	0xbcb6d957	-0.022320433
31	0xbcf67975	-0.030087212
32	0xbd2c1d94	-0.042020395
33	0x3c956738	0.018237695
34	0xbbd0e512	-0.0063749636
35	0x3c9c16e4	0.019053884
36	0x3cc1d39e	0.023660477
37	0xbd33e562	-0.04391993
38	0xbc83410a	-0.016022224
39	0x3d2150b0	0.03938359
40	0xbbf98a0f	-0.007615335
41	0x3cf3e795	0.029773513
42	0xbd1c7fec	-0.038207933
43	0x3d2573fe	0.040393822
44	0x3c98e4f5	0.018663863
45	0xbcfe3c6d	-0.031034673
46	0x3c2a0984	0.010378245
47	0x3ce6b457	0.028162165
48	0x3cc30f7e	0.023811098
49	0x3c0c9422	0.0085802395
50	0xbc8ca778	-0.0171697
51	0xbc62a857	-0.013834081
52	0xbd03641e	-0.0320779
53	0x3d31edde	0.04343974
54	0x3c0a253d	0.00843173
55	0x3c1ce74f	0.009576633
56	0xbcd11e37	-0.025527103
57	0xbd0d596d	-0.03450911
58	0xbbaa365a	-0.0051944675
59	0x3cbae9ba	0.022816528
60	0x3d088c25	0.033336777
61	0xbb8dfb03	-0.0043329014
62	0x3c980f8b	0.018562099
63	0xbbfefdb6	-0.0077817095
64	0xbc56f849	-0.013120719
65	0x3d34e6fc	0.044165596
66	0x3c30560d	0.010762704
67	0x3d31b4cb	0.04338531
68	0xbd3191c0	-0.04335189
69	0x3b65b28f	0.0035049056
70	0xbc77f03f	-0.015132963
71	0x3d0c3174	0.03422685
72	0x3cb5797a	0.022152651
73	0x3bf196c9	0.0073727113
74	0x3ce17123	0.027519768
75	0xbcd6dab5	-0.026227335
76	0xbc3dd992	-0.011587517
77	0x3cb7be9f	0.022429762
78	0xbcd27d81	-0.02569461
79	0x3c2e18b8	0.010626011
80	0x3c6b9364	0.014378402
81	0xbd167f29	-0.036742363
82	0xbcd4c85e	-0.025974449
83	0xbd05f95d	-0.032708514
84	0xbd259098	-0.0404211
85	0xbc8074fc	-0.015680782
86	0x3c639ae7	0.013891912
87	0x3c867285	0.016412029
88	0x3ccd2ea4	0.025046654
89	0x3bb5860a	0.0055396603
90	0xbce7baae	-0.028287258
91	0xbd2aadd8	-0.041669697
92	0x3d1dbcaa	0.038510002
93	0x3c00bd46	0.007857626
94	0x3d0ae22a	0.033907093
95	0xbd29c50d	-0.041447688
96	0xbcc4e3f6	-0.024034481
97	0xba98c098	-0.0011654077
98	0x3d15c981	0.036569122
99	0xbd1475f2	-0.036245294
100	0xbcc08f82	-0.02350593
101	0xbd095417	-0.03352746
102	0x3cb82998	0.022480771
103	0x3b5fb614	0.0034135627
104	0xbc897f0f	-0.01678422
105	0x3cf16e80	0.029471636
106	0xbd06930a	-0.03285507
107	0xbb8f0701	-0.0043648486
108	0xbca58a8e	-0.02020767
109	0xbc21bc9d	-0.009871629
110	0x39ef1d87	0.00045607632
111	0xba82fa79	-0.000999286
112	0x3d335351	0.04378063
113	0xbd1fc858	-0.039009422
114	0xbc979f6f	-0.018508641
115	0xbb5c9fe3	-0.0033664636
116	0xbc978167	-0.018494321
117	0x3d282684	0.041052356
118	0x3cba4ece	0.022742655
119	0x3d08ecf3	0.033429097
120	0x3d04f112	0.032456465
121	0xbb1ac824	-0.0023617828
122	0x3cee8d19	0.029120015
123	0xbb74434f	-0.0037271564
124	0x3d02095f	0.03174722
125	0x3bd2ec22	0.0064368406
126	0x3c902b87	0.01759888
127	0x3c952cc5	0.018209824
128	0xbc896d34	-0.016775705
129	0x3d1ac17f	0.03778219
130	0x3d1386ac	0.036017105
131	0xbc2efdc1	-0.010680617
132	0xbc5656a0	-0.013082176
133	0xbd209e2c	-0.039213344
134	0x3cbe767e	0.02324986
135	0xbd0ac043	-0.03387476
136	0xbd273a90	-0.040827334
137	0x3d14f515	0.03636654
138	0x3c207704	0.009794001
139	0x3d1da616	0.03848847
140	0xbd176dd6	-0.036969982
141	0xbccbf127	-0.024895264
142	0xbc41361e	-0.011792688
143	0x3cdfd0a4	0.027321167
144	0xbd096d1a	-0.033551313
145	0xbd1bf911	-0.038079325
146	0xbc5539ae	-0.01301424
147	0xbcbbd378	-0.022927985
148	0x3d2f676c	0.04282324
149	0x3cb8b03e	0.022544976
150	0xbcf45eda	-0.029830385
151	0xbc9c0c08	-0.019048706
152	0xbad53538	-0.0016266471
153	0xbce29261	-0.02765769
154	0xbd08c6ab	-0.03339259
155	0x3d223712	0.0396033
156	0xbcf0c510	-0.029390842
157	0x3cd119cb	0.025524994
158	0xbc5071f8	-0.012722485
159	0xbd09833c	-0.03357242
160	0xbca4091b	-0.020023873
161	0xbca5e2e6	-0.020249795
162	0xbcf5e3fb	-0.030015936
163	0xbcddc578	-0.0270717
164	0xbb038cc1	-0.002007291
165	0xbcbea1a9	-0.023270445
166	0x3d133706	0.035941146
167	0xbd2cf0f9	-0.042221997
168	0xbbebece8	-0.0071998723
169	0x3cee5526	0.029093336
170	0xbceef3ee	-0.02916905
171	0xbc2567d4	-0.010095555
172	0xbd139aa3	-0.036036145
173	0xbd2ea286	-0.042635463
174	0x3cab84de	0.02093738
175	0x3c38f6e0	0.011289328
176	0x3b8cf21d	0.004301323
177	0x3d0f25c2	0.034948118
178	0xba8480f9	-0.0010109238
179	0xbd170b5c	-0.036876068
180	0xbd301f95	-0.04299887
181	0x3bd1feda	0.0064085545
182	0xbcd686bb	-0.026187291
183	0x3d2892ba	0.041155554
184	0xbbb52e51	-0.005529203
185	0x3d1bb504	0.038014427
186	0xbbe9b0db	-0.0071316785
187	0xbca78d10	-0.020453006
188	0xbd3352f2	-0.043780275
189	0x3d2c9efb	0.042143803
190	0xbd1c745e	-0.038196914
191	0x3cfffec1	0.031249406
192	0xbc8c91c8	-0.017159358
193	0xbd059cec	-0.032620355
194	0xbc78ef5b	-0.015193786
195	0x3caf47a3	0.021396464
196	0x3d0a24ad	0.033726383
197	0xbd176766	-0.036963843
198	0xbd06fa20	-0.03295338
199	0x3c75d5da	0.0150045995
200	0x3cacd168	0.021095946
201	0xbce87f7c	-0.028381102
202	0x3c96b1a5	0.018395254
203	0xbbcad247	-0.006189618
204	0xbd1df35f	-0.038562175
205	0x3ccac9c2	0.024754409
206	0xbd179f66	-0.03701725
207	0xbb23ffef	-0.0025024374
208	0xbc1c8a70	-0.00955449
209	0xbca6668e	-0.020312574
210	0xbbea291c	-0.007146014
211	0xbd2192f8	-0.0394468
212	0x3d203d4b	0.039120954
213	0xbd07653e	-0.033055536
214	0x3cdf7934	0.027279474
215	0x3ac85d86	0.0015286661
216	0xbb013a58	-0.0019718613
217	0xbb52db62	-0.003217422
218	0xbc9a7ca6	-0.018858265
219	0xbc0334f1	-0.008008228
220	0x3d024543	0.031804334
221	0xbcabf4b3	-0.020990705
222	0x3ca524b3	0.020159101
223	0xbd120bbb	-0.03565572
224	0xbcb302c3	-0.021851903
225	0x3cfa5b54	0.030561127
226	0x3c8476c3	0.016169911
227	0xbd24641e	-0.04013454
228	0xbcfd90ab	-0.030952772
229	0x3cea5039	0.028602706
230	0xbb468f6e	-0.0030297893
231	0x3d282d9b	0.041059118
232	0xbd32896d	-0.04358809
233	0x3c400fa7	0.011722482
234	0xbd33063f	-0.04370713
235	0x3c96ad7e	0.018393274
236	0xbc753951	-0.014967279
237	0xbb999fa5	-0.0046882206
238	0xbbb2ce3f	-0.0054567154
239	0x3bba3228	0.0056822486
240	0xbcf3a665	-0.029742429
241	0xbcc8dedf	-0.024520336
242	0x3c9dc7c9	0.019260304
243	0xbcd1707e	-0.025566336
244	0x3c4aa3bd	0.01236814
245	0xbbab0bcf	-0.0052199136
246	0x3ce4a58f	0.027910976
247	0xbc3636ed	-0.011121494
248	0x3cff3143	0.03115142
249	0xba9a03be	-0.0011750383
250	0xbcc925fd	-0.024554247
251	0x3c08b5cf	0.008344128
252	0xbcde86be	-0.02716386
253	0x3c2e8f18	0.010654233
254	0xbcadc928	-0.021214083
255	0x3baed40f	0.005335338

fc_latent.bias f4 [4]
0	0x3cf654d8	0.030069754
1	0x3cff5fb9	0.031173574
2	0xbd312834	-0.04325123
3	0x3caf5c52	0.021406326
